models/lstm/best.pth (torch, 861833 bytes, 12 tensors)

lstm.weight_ih_l0 f4 [512, 11]
0	0x3d0d1726	0.034445904
1	0xbd36bb3f	-0.044612166
2	0xbd864707	-0.06556516
3	0xbdc7591f	-0.097337954
4	0xbd83e9d8	-0.064410865
5	0xbb739b85	-0.0037171554
6	0xbe049f2c	-0.12951344
7	0x3d8d073d	0.06886146
8	0xbdf16103	-0.11786082
9	0x3cea7743	0.028621322
10	0xbd2f84dd	-0.042851318
11	0xbc811324	-0.015756197
12	0x3c9a7fb7	0.018859727
13	0xbcde4e56	-0.027136963
14	0xbd94b42e	-0.07260929
15	0xbda4a01c	-0.08038351
16	0x3d8b208f	0.067933194
17	0xbd54922d	-0.051897217
18	0x3d8c0831	0.068375
19	0xbca9d1a4	-0.020729847
20	0xbd7a3b16	-0.061091505
21	0xbd9dbe47	-0.07702308
22	0x3dad7dda	0.0847127
23	0x3cbaa813	0.022785222
24	0xbc64d04e	-0.013965679
25	0x3ded5b0f	0.11589634
26	0xbdda56aa	-0.10661061
27	0x3cf1f784	0.02953697
28	0xbd1a3a45	-0.037653226
29	0x3e129507	0.14314662
30	0x3d962f4b	0.07333239
31	0x3e102635	0.14077075
32	0xbba0fafd	-0.0049127326
33	0x3d6f6f9f	0.05845606
34	0xbc11608e	-0.008873118
35	0x3c02780b	0.007963191
36	0xbd6c55e2	-0.05769909
37	0x3da640e1	0.081178434
38	0x3e19d0b9	0.15021028
39	0x3e453657	0.1925901
40	0xbb83a8c2	-0.0040179202
41	0x3d155bda	0.03646455
42	0x3bdc48ad	0.006722531
43	0xbdb40dd4	-0.087917
44	0xba8a519f	-0.001055289
45	0xbc2c1f49	-0.010505506
46	0x3d32b65b	0.04363094
47	0xbcdda175	-0.027054528
48	0xbd89eb46	-0.06734328
49	0x3bf1786d	0.007369092
50	0x3d25423e	0.040346377
51	0x3e09087b	0.13382141
52	0xbd47bd92	-0.048764773
53	0xbc699a5e	-0.014257995
54	0xbccf1e12	-0.025282893
55	0xbc6cfc45	-0.014464443
56	0xbe02ca91	-0.12772585
57	0xbbb294da	-0.0054498734
58	0xbd161d94	-0.0366493
59	0x3e0c09f8	0.13675678
60	0x3d063b7f	0.032771584
61	0x3d87fbf0	0.0663985
62	0x3d4781c9	0.048707757
63	0x3c5dc118	0.013534807
64	0xbd5ec898	-0.05439052
65	0xbd67ff0e	-0.056639723
66	0x3dc9cbd6	0.09853332
67	0x3dfae548	0.12250763
68	0x3e0b1d86	0.13585481
69	0x3e52ccbd	0.20585914
70	0x3d3007b3	0.042976093
71	0xbdd627b3	-0.10456791
72	0xbc183a4a	-0.009291241
73	0xbe15ed4d	-0.14641304
74	0xbdc77f91	-0.09741128
75	0xbd1385ee	-0.036016397
76	0x3e599507	0.21248256
77	0xbba41f46	-0.005008611
78	0x3dc824ff	0.097726814
79	0xbc674e69	-0.0141178155
80	0x3d1d5056	0.038406692
81	0x3dc0aae3	0.09407594
82	0xbdb85581	-0.090006836
83	0x3cad4782	0.021152262
84	0xbc8691cc	-0.016426943
85	0x3c0b02e0	0.008484572
86	0x3d431291	0.04762513
87	0x3dac8f28	0.084257424
88	0xbbcf4004	-0.00632477
89	0x3cebb8a5	0.028774569
90	0x3b488726	0.0030598133
91	0xbdfbb34a	-0.12290056
92	0x3c372163	0.011177394
93	0x3db3b12a	0.08774026
94	0x3c38fcac	0.01129071
95	0x3da1534d	0.078772165
96	0x3cf2d4e6	0.029642534
97	0x3b945b02	0.0045274505
98	0xbe03e247	-0.12879287
99	0x3ced743d	0.02898609
100	0x3d1a72cf	0.037707146
101	0x3d95cdfe	0.073146805
102	0xbd33a12d	-0.04385488
103	0x3d6e3a0e	0.058160834
104	0xbc7705e2	-0.015077086
105	0xbd556bdd	-0.05210482
106	0xbbad8c39	-0.005296257
107	0x3d02b93a	0.031914927
108	0x3dfef1bd	0.12448452
109	0x3e0c7cdc	0.13719505
110	0x3d3d51c5	0.04622056
111	0x3e15633e	0.14588639
112	0x3d94ff77	0.072752886
113	0xbd8534f0	-0.06504238
114	0xbbf48120	-0.007461682
115	0xbcba5bc3	-0.022748834
116	0xbac18c49	-0.001476654
117	0x3b64dabd	0.0034920417
118	0x3d0e993d	0.03481411
119	0xbd3ad9ba	-0.045617796
120	0xbd7c7902	-0.06163884
121	0xbd5ef7ea	-0.054435648
122	0xbcdb6b2b	-0.0267845
123	0xbc9dc76e	-0.019260135
124	0xbcf0a4a8	-0.02937539
125	0x3e06489f	0.1311364
126	0x3d4dccdd	0.0502442
127	0xbcc31f51	-0.023818644
128	0xbd0864bc	-0.033299193
129	0xbc1ee6c5	-0.009698574
130	0xbcd5ddcb	-0.026106736
131	0x3d20a7a9	0.039222393
132	0x3e73aa54	0.23795444
133	0x3e87ab86	0.2649805
134	0x3d25e7a2	0.040504105
135	0x3e0637f6	0.13107285
136	0x3d0f1187	0.034928825
137	0xbd1cdbf8	-0.038295716
138	0xbda1527c	-0.07877061
139	0x3e3293af	0.1743915
140	0x3cfc83a9	0.0308245
141	0x3d338bf2	0.043834634
142	0x3e5a7f65	0.2133766
143	0x3d200d40	0.039075136
144	0xbc530d6d	-0.012881619
145	0xbdcec02d	-0.10095248
146	0xbd2e8dc1	-0.042615656
147	0xbc7ad498	-0.015309475
148	0xbccfcefd	-0.025367254
149	0x3cfb4e3a	0.03067695
150	0xbc6d9c38	-0.0145025775
151	0xbc7f3c32	-0.0155783165
152	0xbc86dd97	-0.016463084
153	0x3cc0a649	0.023516791
154	0xbda598be	-0.08085774
155	0x3dfbd5cd	0.12296639
156	0xbcecf24f	-0.028924135
157	0xbe2e837b	-0.17042343
158	0xbce5b23c	-0.02803909
159	0x3d8479be	0.06468533
160	0xbe480950	-0.19534802
161	0x3d85be80	0.065304756
162	0x3da3daa1	0.080006845
163	0x3cac98e3	0.021068996
164	0xbdca2469	-0.09870226
165	0xbdc152b1	-0.094396
166	0xbc07b904	-0.008283857
167	0xbc8feaad	-0.017567957
168	0xbd1ea4f7	-0.03873154
169	0x3d8a585b	0.06755134
170	0x3e0d7603	0.13814549
171	0x3dfd6f82	0.12374784
172	0xbda512e2	-0.08060242
173	0x3d41b0d7	0.04728779
174	0x3d846d7d	0.06466196
175	0xbdbba8ab	-0.0916303
176	0x3da389cd	0.07985268
177	0x3e34ce81	0.176569
178	0x3cc45e91	0.023970874
179	0xbddbd614	-0.107341915
180	0xbdf03752	-0.117293015
181	0xbdb21f43	-0.08697369
182	0x3b8c442b	0.004280587
183	0x3d593df6	0.053037606
184	0xbda94fb8	-0.08267158
185	0x3d41b425	0.04729094
186	0x3de3b065	0.11117629
187	0x3d0a3df6	0.033750497
188	0x3defd00d	0.117096044
189	0xb95fcc13	-0.00021342961
190	0x3c825d64	0.015913673
191	0xbd8d127c	-0.06888291
192	0x3dcc3af8	0.09972185
193	0xbbddb875	-0.0067663738
194	0x3dedb295	0.116063274
195	0xbcaa9735	-0.020824054
196	0x3d31e709	0.043433223
197	0xbd8fad63	-0.07015493
198	0xbe2f9d5d	-0.17149873
199	0xbd9d3b75	-0.07677356
200	0xbc813042	-0.015770081
201	0xbdfabd70	-0.122431636
202	0xbb47989c	-0.0030455953
203	0x3e04dce0	0.12974882
204	0x3dfb9799	0.12284774
205	0x3d133d53	0.035947155
206	0x3d0ea340	0.034823656
207	0xbd8e7dbf	-0.06957578
208	0xbd9b5af5	-0.07585708
209	0x3c9b5818	0.018962905
210	0x3e4c00ce	0.19922182
211	0xbcff47b3	-0.031162119
212	0xbcb09a24	-0.021557875
213	0x3d15a05b	0.03652988
214	0x3c40c836	0.011766484
215	0xbe252b6d	-0.16129847
216	0xbceaad61	-0.028647127
217	0xbb8e93be	-0.0043511083
218	0xbd64b612	-0.0558377
219	0x3e247894	0.16061622
220	0x3db2d50c	0.08732042
221	0xbd86bf91	-0.06579507
222	0x3df39e6e	0.118954524
223	0x3cd395ce	0.025828268
224	0x3bee300b	0.0072689108
225	0x3cd9502e	0.02652749
226	0x3e03b7cb	0.1286308
227	0x3e3a6d4e	0.18205759
228	0x3b61e500	0.003446877
229	0x3c19dd05	0.009391074
230	0xbd1e3636	-0.03862592
231	0x3d388eec	0.045058176
232	0x3e0e602c	0.13903874
233	0x3dfcafa7	0.123381905
234	0xbd8c5a52	-0.06853165
235	0x3e48f1e9	0.19623531
236	0x3d760071	0.060059015
237	0x3da28548	0.07935578
238	0x3e1ce293	0.15320806
239	0x3d4c039c	0.04980813
240	0x3da4a871	0.0803994
241	0x3d18dfc0	0.03732276
242	0xbd561d91	-0.05227429
243	0xbe3a7397	-0.18208157
244	0xbce8321b	-0.028344205
245	0xbdf815e7	-0.121135525
246	0x3d0a7d52	0.03381092
247	0xbac1761d	-0.0014759932
248	0x3a40b6f6	0.0007351482
249	0xbbb7effe	-0.005613326
250	0xbd9d8e22	-0.07693125
251	0x3c19bcea	0.0093834195
252	0xbd94fcf4	-0.072748095
253	0x3d9f89a2	0.07789923
254	0x3daf2245	0.08551458
255	0xbdcab9c8	-0.09898716

lstm.weight_hh_l0 f4 [512, 128]
0	0x3d28e3fb	0.041233044
1	0xbbfc3a63	-0.00769739
2	0xbc9604a1	-0.018312754
3	0x3b770202	0.0037690406
4	0x3da49b21	0.08037401
5	0xbc2348c3	-0.009966078
6	0xbd57c92e	-0.052682094
7	0xbcfb735e	-0.03069466
8	0x3d0f9416	0.035053335
9	0x3a2cb451	0.00065881485
10	0x3d0458b6	0.032311164
11	0xbd6a5cbe	-0.057217352
12	0x3abc62ad	0.0014372669
13	0x3d8b1277	0.06790631
14	0x3d6ff4a9	0.058582935
15	0x3da58e55	0.08083788
16	0xbd296fbe	-0.04136633
17	0xbd77695c	-0.060403213
18	0x3cc17534	0.023615457
19	0x3da0aa89	0.07845027
20	0xbd9f3fc1	-0.07775832
21	0xbbf8468e	-0.00757677
22	0x3cd03576	0.025416117
23	0xbd330dfc	-0.04371451
24	0xbd0f62a4	-0.03500618
25	0xbd3814ee	-0.044941835
26	0xbd230832	-0.039802738
27	0xbcac79be	-0.021054145
28	0x3da6a172	0.08136262
29	0xbd10d44c	-0.035358712
30	0x3d4f4493	0.050602507
31	0xbd2cab4b	-0.042155545
32	0xbdc9b974	-0.098498255
33	0x3d9ec0a5	0.07751588
34	0x3b9daa24	0.004811542
35	0x3db91c34	0.090385824
36	0x3d8df20d	0.06930933
37	0x3c9ae02d	0.018905723
38	0xbd4be433	-0.049778175
39	0xbd7e3282	-0.062059887
40	0xbd7e090c	-0.062020347
41	0xbcf65fbf	-0.030074952
42	0xbc674639	-0.0141158635
43	0xbca8041f	-0.020509778
44	0x3d9ae2c8	0.07562786
45	0x3d347882	0.044060238
46	0x3d4e4737	0.050360885
47	0xbcb872a8	-0.02251561
48	0xbbdaa57b	-0.006672559
49	0x3ca1081b	0.019657185
50	0x3d079af1	0.033106748
51	0xbcf2a8c9	-0.029621499
52	0x3dc5985e	0.09648202
53	0xbda9a3d0	-0.08283198
54	0x3d542272	0.051790662
55	0xbd683bb5	-0.056697566
56	0x3ca6d5d5	0.020365635
57	0x3d19bd8d	0.037534285
58	0xbd2bfb2c	-0.041987583
59	0x3d4e7200	0.050401688
60	0xbc4af14a	-0.012386629
61	0xbc374814	-0.011186618
62	0xbdb003e9	-0.08594496
63	0x3c7535e0	0.014966458
64	0xbd1b1d36	-0.037869655
65	0x3c139b78	0.009009235
66	0xbd6783a5	-0.05652203
67	0xbd197f1b	-0.037474733
68	0xbcbec727	-0.023288323
69	0x3d30629a	0.043062784
70	0x3cbffb87	0.023435367
71	0x3b2f57ac	0.0026755137
72	0xbd8a4276	-0.06750958
73	0xbdc22a4b	-0.09480723
74	0xbd483b33	-0.04888458
75	0xbd81de8f	-0.06341278
76	0x3db72f0e	0.08944522
77	0xbdad7553	-0.084696434
78	0x3bed7b4b	0.0072473637
79	0x3cdca2ab	0.026933035
80	0xbd8ab81c	-0.06773397
81	0xbd37148c	-0.04469733
82	0x3cc7d505	0.024393568
83	0x3b284a70	0.0025679134
84	0xbd6b6fe4	-0.057479754
85	0xbd11627b	-0.03549431
86	0xbd533945	-0.05156829
87	0x3d17418d	0.03692775
88	0x3c9ff3ee	0.019525494
89	0x3c1ea201	0.009682179
90	0xbcae5585	-0.021281013
91	0x3d8051b4	0.06265584
92	0x3d8d2f03	0.068937324
93	0xbb4bf9d7	-0.0031124258
94	0x3d0d7ea4	0.034544602
95	0xbd3695cd	-0.044576455
96	0x3dd144d1	0.10218204
97	0x3c5fcb2f	0.013659283
98	0xbd8e918a	-0.06961353
99	0x3cbf12c6	0.023324382
100	0x3d8ec84d	0.06971798
101	0x3dcc2b06	0.099691436
102	0xbc0a6af7	-0.008448354
103	0xbd0cf311	-0.034411494
104	0xbd0ab827	-0.033867028
105	0xbda1b75e	-0.07896303
106	0xbcdfb36a	-0.027307231
107	0xbd9eb3a2	-0.07749106
108	0xbd210cf7	-0.039319005
109	0xbd2d8d4d	-0.042371083
110	0xbd9e2b4e	-0.077231035
111	0x3d5e09d4	0.05420859
112	0xbd2380b4	-0.039917663
113	0xbd4e320d	-0.0503407
114	0x3d73a4ef	0.059483465
115	0xbc9f4c3c	-0.019445531
116	0x3d388fc7	0.04505899
117	0xbcee1f38	-0.02906762
118	0x3daa2012	0.08306898
119	0x3d9a3ac4	0.0753074
120	0xbde4b7ae	-0.111678466
121	0xbd595018	-0.0530549
122	0xbd407c7d	-0.04699372
123	0x3d95285f	0.07283091
124	0x3d7d4815	0.06183632
125	0x3c81eb59	0.015859293
126	0x3d565b8d	0.052333403
127	0x3d8afa04	0.06785968
128	0x3d006e5a	0.03135524
129	0xbd058478	-0.032597035
130	0xbcd299e8	-0.025708154
131	0x3d2caff4	0.04215999
132	0x3d8ad26b	0.06778415
133	0x3d923b66	0.071402356
134	0x3aa07a25	0.0012243433
135	0xbd6af8d6	-0.057366215
136	0x3d80cfb3	0.062896155
137	0x3c86f2c2	0.016473178
138	0xbc9db2d8	-0.019250318
139	0x3c8119d5	0.015759388
140	0x3d863758	0.06553525
141	0x3da14805	0.07875065
142	0xb92f5840	-0.00016722176
143	0xbb438303	-0.0029832728
144	0xbdacc285	-0.08435539
145	0x3c6c062c	0.014405768
146	0x3c966cf0	0.018362492
147	0xbd51aee2	-0.051192172
148	0xbd85dc21	-0.06536127
149	0xbbee6b8e	-0.007276005
150	0xbdc4318c	-0.09579763
151	0x3da00046	0.07812552
152	0xbc5bdeb2	-0.013419794
153	0xbce4fe9d	-0.02795344
154	0xbd892758	-0.06696957
155	0xbd93e46d	-0.07221303
156	0x3db88555	0.09009806
157	0x3d7a758d	0.06114726
158	0x3c743dea	0.01490734
159	0xbd908eb9	-0.07058472
160	0x3c9a9e79	0.018874394
161	0x3d168f1f	0.036757585
162	0xbd6d3ab9	-0.05791733
163	0xbdb65059	-0.08902044
164	0x3daa3ecb	0.08312758
165	0xbc7b7645	-0.015348022
166	0x3d78c718	0.060736746
167	0x3d919d0b	0.07110032
168	0xbd989914	-0.07451072
169	0x3d938210	0.07202542
170	0x3d907322	0.0705321
171	0xbca0a3d7	-0.019609375
172	0x3dbf8e6a	0.09353335
173	0x3cb70f0f	0.022346048
174	0xbda4891c	-0.08033964
175	0xbd7567ae	-0.05991333
176	0x3ce5d421	0.028055253
177	0x3da9872f	0.08277737
178	0xbba8efa7	-0.005155522
179	0x3cada064	0.021194644
180	0x3d843ae4	0.06456545
181	0xbd93cce0	-0.07216811
182	0x3d950b95	0.072776
183	0xbd936791	-0.07197488
184	0x3d8f5e71	0.07000435
185	0x3cb48328	0.022035196
186	0xb94dc1aa	-0.00019622469
187	0xbd80d22e	-0.062900886
188	0x3bd2ba83	0.0064309253
189	0x3d3cde4b	0.046110433
190	0xbe15b3cf	-0.14619373
191	0x3d852c67	0.0650261
192	0x3d53d56f	0.051717218
193	0xbc9e331d	-0.019311482
194	0xbd466918	-0.04844007
195	0x3d8e4a05	0.06947712
196	0xbd8ca139	-0.06866688
197	0x3b3993d1	0.0028316865
198	0xbc9cd8d5	-0.019146362
199	0xbd8566cc	-0.065137476
200	0x3d931b37	0.07182925
201	0x3d5ffc30	0.054683864
202	0xbdb86282	-0.09003164
203	0x3d2c2402	0.042026527
204	0x3d60d660	0.054891944
205	0x3d385352	0.045001335
206	0x3d6a7546	0.057240747
207	0xbd2c4361	-0.042056445
208	0x3d46b4b0	0.04851216
209	0xbda55555	-0.080729164
210	0xbd972608	-0.07380301
211	0xbd62791f	-0.05529129
212	0x3d50ad97	0.0509468
213	0x3cbce180	0.023056746
214	0xbde01b0d	-0.109426595
215	0xbcd9f72a	-0.026607115
216	0x3d0fecf5	0.03513809
217	0x3d390095	0.04516657
218	0x3d1899cf	0.03725606
219	0xbcbfea9c	-0.0234273
220	0xbcb96fec	-0.022636376
221	0x3c02b0f0	0.0079767555
222	0xbd584560	-0.052800536
223	0xbb35a469	-0.0027716404
224	0xbb3e015a	-0.0028992505
225	0xbda4d475	-0.080483355
226	0x3d74dc64	0.059780493
227	0x3d8fae1c	0.070156306
228	0xbdac7c55	-0.08422152
229	0xbd3b33e0	-0.04570377
230	0xbd2d6b41	-0.042338613
231	0x3cbf816d	0.023377145
232	0xbc4be11e	-0.012443809
233	0xbc49f0e1	-0.012325496
234	0x3d824935	0.063616194
235	0x3d1b1786	0.03786423
236	0xbd0b5b0e	-0.034022383
237	0x3d86a158	0.06573743
238	0x3c2f491e	0.010698585
239	0xbb7ed0d0	-0.0038881786
240	0x3d9638e8	0.07335073
241	0xbd4d7ef5	-0.050169904
242	0x3d1b511b	0.037919145
243	0xbd7863f8	-0.060642213
244	0xbcc44975	-0.023960808
245	0x3cb00e97	0.021491332
246	0xbd767931	-0.06017417
247	0x3ceb8d13	0.028753793
248	0xbd8dc03a	-0.0692143
249	0x3a6e2b30	0.0009085415
250	0xbca2276f	-0.019794194
251	0xbd192826	-0.037391804
252	0x3d40ec37	0.047100272
253	0xbdb73cda	-0.089471534
254	0x3ba65f9e	0.0050773164
255	0x3c4cf79e	0.012510208

lstm.bias_ih_l0 f4 [512]
0	0xbd986d8c	-0.074427694
1	0x3d9fad4f	0.07796728
2	0x3b070b4e	0.0020606103
3	0x3daaaf72	0.08334245
4	0x3dc0edc5	0.09420351
5	0xbc0ee592	-0.008721726
6	0x3ceacc1d	0.028661782
7	0xbcece750	-0.028918892
8	0x3d960ee2	0.073270574
9	0xbcd8f30a	-0.026483078
10	0x3d8cfe9c	0.068845004
11	0xbd8ddadb	-0.06926509
12	0x3d223a0e	0.039606147
13	0xbd25d1b9	-0.04048321
14	0x3d65e141	0.056123022
15	0x3dec4977	0.1153745
16	0xbd2d161e	-0.04225742
17	0x3d92290a	0.07136734
18	0x3d6f381e	0.058403127
19	0xbb3fe42e	-0.0029280293
20	0x3dfa33de	0.12216924
21	0x3e10bbbc	0.14134115
22	0x3c2f5ad2	0.010702806
23	0xbdb75fd1	-0.089538224
24	0xbd81587b	-0.063157044
25	0x3d0ed96f	0.03487533
26	0x3d827762	0.06370427
27	0x3d123c8f	0.035702284
28	0xbd759391	-0.059955183
29	0x3d1c2a85	0.038126487
30	0xbd9b6586	-0.075877234
31	0x3ab0252a	0.001343881
32	0x3d63c34c	0.05560617
33	0xbd40e510	-0.04709345
34	0x3d3546a2	0.044256814
35	0xbd6953b4	-0.05696459
36	0x3d4dc0a7	0.050232556
37	0xbd85767b	-0.06516739
38	0x3dc17e24	0.094478875
39	0xbce8e258	-0.028428242
40	0xbd7a8c35	-0.061168868
41	0x3d4640bf	0.04840159
42	0x3ced2292	0.028947148
43	0x3d9ec267	0.07751923
44	0xbd9c6585	-0.07636551
45	0xbde45183	-0.111483596
46	0xbd137731	-0.03600234
47	0xbda95f63	-0.08270147
48	0x3daa6c60	0.08321452
49	0xbdad49ac	-0.084613174
50	0xbc951491	-0.018198283
51	0x3d2d0cf4	0.04224868
52	0xbd32fa4e	-0.04369574
53	0x3d6e7617	0.058218088
54	0xbcf8caf3	-0.030370211
55	0x3dbdb4b0	0.09262979
56	0xbda56f4d	-0.080778696
57	0x3c42ed7a	0.011897439
58	0x3c944add	0.018102104
59	0x3d5f557d	0.054524887
60	0x3dd3cd98	0.10341948
61	0x3d26811c	0.040650472
62	0xbcc7e633	-0.02440176
63	0xbda8f0a8	-0.082490265
64	0x3de2fe96	0.11083715
65	0x3d3212ff	0.043475147
66	0xbce7f9e0	-0.028317392
67	0x3d0af898	0.033928484
68	0xbd3b9cc8	-0.045803815
69	0x3d217e2d	0.03942697
70	0x3d567841	0.052360777
71	0xba913699	-0.0011078893
72	0x3d5fff1b	0.054686647
73	0x3bdc5dee	0.0067250645
74	0x3cde2ad0	0.027120024
75	0x3db0a123	0.086244844
76	0xbc698358	-0.014252506
77	0xbd2ab0ff	-0.041672703
78	0x3d837883	0.0641947
79	0xbd15c464	-0.036564246
80	0xbc752e37	-0.014964632
81	0xbd226ab6	-0.03965255
82	0x3e02a44d	0.12757988
83	0x3d62444c	0.055240914
84	0xbd8e9558	-0.06962079
85	0xbc2cc353	-0.010544616
86	0x3d22eba7	0.039775517
87	0x3d7aa7ea	0.06119529
88	0xbd65c338	-0.05609438
89	0xbd9b8b56	-0.075949356
90	0xbce52b13	-0.027974641
91	0x3c37602c	0.011192363
92	0xbd7a2274	-0.061068013
93	0xbde65dbc	-0.11248347
94	0xbd522388	-0.051303416
95	0x3c043a79	0.008070582
96	0xbd9a6914	-0.07539573
97	0xbd8b43d2	-0.06800045
98	0xbd8605c5	-0.06544069
99	0x3d4d64b9	0.050144885
100	0xbb71edfd	-0.0036915534
101	0xbd3f3262	-0.04667891
102	0xbd652217	-0.055940714
103	0xbd93d318	-0.07217997
104	0xbd9bd6f7	-0.07609361
105	0x3d2f9a09	0.04287151
106	0xbd65d368	-0.056109816
107	0xbd21c455	-0.039493877
108	0xbd893f82	-0.06701566
109	0xbda0f06f	-0.07858359
110	0xbc03d6cb	-0.008046816
111	0x3d5fe002	0.05465699
112	0xbd8fd8e1	-0.07023788
113	0xbc0b4cbd	-0.008502183
114	0xbd8f7bdc	-0.07006046
115	0x3c9a3f8b	0.018829128
116	0xbddc337a	-0.10752006
117	0xbcacb1f7	-0.021080954
118	0xbd1f35b0	-0.03886956
119	0x3dcaa844	0.09895375
120	0x3e33ad3c	0.17546552
121	0x3cc2c03b	0.023773303
122	0xbc5a99cc	-0.013342332
123	0x3ba957b1	0.0051679243
124	0x3d892f01	0.066984184
125	0x3d46ba07	0.048517253
126	0xbd9f0c63	-0.077660345
127	0x3d19b44b	0.037525456
128	0xbd7b0531	-0.061284248
129	0xbd03424b	-0.032045644
130	0x3d8de80f	0.06929027
131	0x3dd858c9	0.105638094
132	0x3d059472	0.03261227
133	0xbd389163	-0.045060527
134	0x3d6663af	0.05624741
135	0x3daa7aa0	0.0832417
136	0xbda0a584	-0.078440696
137	0x3daf828b	0.08569821
138	0xbd63a32c	-0.055575535
139	0xbcf75d92	-0.030195985
140	0xbc829b4a	-0.015943188
141	0xbd1f5e21	-0.038908128
142	0x3d9b1649	0.0757261
143	0x3e2c9479	0.16853513
144	0x3d62f966	0.055413626
145	0x3ca396fa	0.019969452
146	0xbd8b8f35	-0.06814424
147	0xbdac89bb	-0.084247075
148	0xbcc1c41b	-0.02365308
149	0x3d0ac23c	0.033876643
150	0xbc9b83df	-0.01898378
151	0xbd37feb9	-0.044920657
152	0xbc7a3dc5	-0.015273516
153	0x3ccd1d89	0.025038498
154	0xbda67da9	-0.081294365
155	0x3d8ee9f0	0.06978214
156	0x3c368775	0.011140694
157	0xbd6cae2d	-0.057783294
158	0x3d51a2bd	0.05118059
159	0x3b935e33	0.0044973134
160	0x3d4b091e	0.04956924
161	0x3d74087f	0.059578415
162	0xbc8a2101	-0.01686144
163	0xbaff91f0	-0.0019498449
164	0xbd8ce648	-0.0687986
165	0xbc122648	-0.00892026
166	0x3d1be12d	0.03805654
167	0x3b9124bf	0.0044294293
168	0xbbef9cc4	-0.007312389
169	0xbd81601e	-0.06317161
170	0x3cc6c9a4	0.024266072
171	0x3d9c7fe6	0.07641582
172	0x3d9db3ca	0.07700308
173	0x3cdaa127	0.026688172
174	0x3adc033e	0.0016785634
175	0x3d720435	0.059086043
176	0x3db8729a	0.090062335
177	0xbbeb5985	-0.0071823024
178	0x3d5bf875	0.053703744
179	0xbd3a5848	-0.045494348
180	0x3d2eb83a	0.04265616
181	0xbd3b2288	-0.04568723
182	0xbdd80df4	-0.10549536
183	0xbd52f578	-0.05150363
184	0xbd48966c	-0.04897158
185	0x3d9d6379	0.076849885
186	0xbd039981	-0.032128815
187	0xbd34b58f	-0.04411846
188	0x3dbf0fe2	0.09329201
189	0xbcfc5e8e	-0.030806806
190	0xbd648fe9	-0.055801306
191	0x3c31ffaf	0.010864182
192	0x3d41b609	0.047292743
193	0xbd9fa315	-0.07794777
194	0xbdc62d68	-0.09676629
195	0xbd5f64d5	-0.05453952
196	0xbcc28333	-0.023744201
197	0x3d2f3a8b	0.04278044
198	0x3d5cfa17	0.05394944
199	0x3d03ad5a	0.032147743
200	0x3e04e562	0.12978128
201	0x3d901453	0.070351265
202	0x3cb3b642	0.021937493
203	0x3cf2acc4	0.029623397
204	0xbc55c562	-0.013047548
205	0x3d394a06	0.04523661
206	0xbc2b3e37	-0.010451845
207	0x3d7fc883	0.062447082
208	0x3e025544	0.12727839
209	0x3d77d565	0.060506243
210	0x3c9b7e45	0.018981108
211	0x3c13d269	0.009022334
212	0x3d7baa50	0.06144172
213	0xbd8195af	-0.06327378
214	0xbcb75c12	-0.02238277
215	0x3cf00403	0.029298788
216	0x3d8c9341	0.06864024
217	0x3d61d06d	0.05513041
218	0xbd2e9273	-0.042620134
219	0xbd63aa89	-0.055582557
220	0x3da4da57	0.080494575
221	0xbd5efe92	-0.054441996
222	0xbcddebed	-0.027090037
223	0xba470422	-0.00075918634
224	0xbd0a5ce9	-0.033780012
225	0x3df3ca20	0.11903787
226	0xbc4b7171	-0.012417183
227	0xbc4b479f	-0.0124072125
228	0xbd563ba6	-0.05230298
229	0x3d39d183	0.04536582
230	0x3ac19d74	0.0014771656
231	0x3da61e2c	0.081112236
232	0xbd929071	-0.07156456
233	0x3cdb9dc1	0.026808621
234	0x3d209a86	0.039209865
235	0xbc4f9434	-0.012669612
236	0xbd822bd3	-0.06356015
237	0x3c734f64	0.014850471
238	0x3dc98352	0.098395005
239	0xbd91c8f6	-0.071184084
240	0x3d53d62f	0.051717933
241	0x3d915d85	0.070979156
242	0x3d222a71	0.039591257
243	0xbbbb298d	-0.0057117403
244	0x3c61f373	0.013790953
245	0x3da1bd9f	0.078974955
246	0x3ca2986e	0.019848075
247	0xbc97f2cc	-0.018548392
248	0x3e37a48b	0.17933862
249	0x3d11a72d	0.035559822
250	0xbcbc72ed	-0.02300402
251	0xbd34c784	-0.044135585
252	0x3d48e520	0.049046636
253	0xbdcefd8f	-0.10106956
254	0x3d8702ff	0.06592368
255	0x3caf9a29	0.021435814

lstm.bias_hh_l0 f4 [512]
0	0xbde79772	-0.11308183
1	0xbd3682fb	-0.044558506
2	0x3da74432	0.08167304
3	0x3e1489ce	0.14505693
4	0x3d684061	0.05670202
5	0x3cead981	0.028668167
6	0x3b24f6d3	0.0025171533
7	0x3d85845f	0.065193884
8	0x3b3ebabe	0.0029103006
9	0xbd159f17	-0.036528673
10	0x3d0fccb6	0.035107337
11	0x3cbaa0e3	0.022781795
12	0xbd4d1b3a	-0.050074793
13	0xbd2b3a1e	-0.04180347
14	0xbd3868a5	-0.04502167
15	0x3dd5a1ff	0.10431289
16	0x3bed7f40	0.0072478354
17	0xbd88cbba	-0.06679483
18	0x3d63f024	0.055648938
19	0x3ba0f2aa	0.0049117403
20	0x3de7b755	0.11314265
21	0x3e3a3078	0.18182552
22	0x3be25eec	0.006908288
23	0x39e123c4	0.00042941992
24	0x3d1f6c9c	0.038921937
25	0xbd658777	-0.056037392
26	0x3da75256	0.08170001
27	0xbd49ad77	-0.049237695
28	0xbdaf4f54	-0.085600525
29	0x39e00fe6	0.00042736455
30	0x3d05a8b9	0.03263161
31	0x3d94d74a	0.07267626
32	0x3d2bcbc3	0.04194237
33	0x3da7b446	0.08188681
34	0x3d0c5650	0.034262
35	0x3dac7747	0.08421188
36	0xbd0d8937	-0.034554686
37	0xbc58944d	-0.013218951
38	0xbd2c9be6	-0.042140864
39	0x3d3d036d	0.046145845
40	0x3d5ed9fb	0.0544071
41	0xbd3b86ad	-0.045782734
42	0x3d0bfdcf	0.034177598
43	0x3ce73776	0.028224688
44	0xbda91124	-0.082552224
45	0xbddb643d	-0.10712478
46	0xbb4f7cd8	-0.0031660106
47	0xbd91ba95	-0.07115666
48	0x3c3af994	0.011412043
49	0xbc8d9a35	-0.017285446
50	0xbccec932	-0.025242422
51	0x3d4378aa	0.047722496
52	0x3ce38a7a	0.027775992
53	0x3d46f6ad	0.048575092
54	0x3d0bd3af	0.034137424
55	0xbcbdfb76	-0.023191195
56	0xbd92dd33	-0.07171097
57	0xbda8f3b1	-0.082496054
58	0xbdd46404	-0.10370639
59	0xbda6fb11	-0.08153356
60	0x3d7dcee0	0.06196487
61	0x3d1beba2	0.038066514
62	0xbc459082	-0.012058379
63	0xbddf1df0	-0.10894382
64	0x3de9a5c8	0.114085734
65	0xbd2def29	-0.04246441
66	0xbc12fe41	-0.008971752
67	0xbd813b68	-0.06310159
68	0xbdc0b91e	-0.09410308
69	0xbddddc52	-0.108330384
70	0x3c0b2dd1	0.00849481
71	0xbd8e9117	-0.069612674
72	0x3cc38a68	0.023869708
73	0xbd97ce91	-0.07412446
74	0x3d0989cb	0.033578675
75	0xbd91072b	-0.07081445
76	0x3c218b9c	0.009859946
77	0x3cdd82b9	0.027039872
78	0xbd18484a	-0.037178315
79	0xbb88f6b4	-0.0041798
80	0x3cd846b8	0.026400909
81	0xbd6fc2f1	-0.05853552
82	0x3d83b8fd	0.06431768
83	0x3d13605b	0.035980564
84	0xbdb6b02b	-0.0892032
85	0xbddad601	-0.10685349
86	0xbc453528	-0.012036599
87	0xbb83d859	-0.0040235934
88	0x3ceb7552	0.028742466
89	0xbd5f13f7	-0.0544624
90	0x3d8f97b6	0.070113584
91	0xbd15cf2b	-0.036574524
92	0x3d12edde	0.03587138
93	0xbd628644	-0.055303827
94	0xbd6b958c	-0.057515666
95	0xbc41c043	-0.011825624
96	0xbd7882f9	-0.06067178
97	0xbd5faa7c	-0.054605946
98	0x3d0bcc43	0.034130346
99	0x3d2445d5	0.04010566
100	0xbd8996e8	-0.06718236
101	0x3d48cec6	0.04902532
102	0x398548f5	0.00025422094
103	0xbd5190af	-0.05116337
104	0xbc75ad91	-0.014994995
105	0x3d098707	0.033576038
106	0x3c8612e0	0.016366422
107	0x3d0bf5f0	0.03417009
108	0xbd3112a5	-0.04323067
109	0x3dab02a5	0.08350114
110	0xbd4ab184	-0.0494857
111	0x3b59bdca	0.0033224695
112	0x3d920c48	0.07131249
113	0xbd15978f	-0.03652149
114	0xbd107152	-0.03526432
115	0x3cc44145	0.023956904
116	0x3b98a068	0.004657794
117	0xbde9f13e	-0.114229664
118	0x3ca37a44	0.019955762
119	0x3cfcf1fe	0.03087711
120	0x3e4243d8	0.18971193
121	0x3ba13d36	0.004920627
122	0xbc1b9fbf	-0.009498536
123	0xbcfb1682	-0.030650381
124	0xbd5abee0	-0.05340469
125	0x3d89ef43	0.06735089
126	0x3d657cfb	0.056027394
127	0x3d6108e3	0.054940116
128	0x3cb3b784	0.021938093
129	0xbc98072d	-0.01855811
130	0xbd1a22cb	-0.037630837
131	0x3d5756d0	0.052573025
132	0xbd1f17fb	-0.03884123
133	0xbd426c55	-0.047466595
134	0x3dccbacd	0.09996567
135	0x3da58660	0.080822706
136	0x3d44908d	0.047989417
137	0x3da3b46f	0.07993399
138	0x3c0ac9df	0.008470981
139	0x3d1d32e5	0.038378615
140	0x3d891382	0.06693174
141	0x3cd9ee08	0.02660276
142	0xbcd53f12	-0.02603105
143	0x3dd67ed1	0.10473407
144	0x3dd4eb41	0.103964336
145	0x3da11741	0.078657635
146	0xbd23e5e6	-0.04001417
147	0xbdb1f733	-0.08689728
148	0x3d985f17	0.07440012
149	0x3dde2618	0.108471096
150	0x3d6e13df	0.05812442
151	0x3d80738b	0.06272038
152	0x3d879084	0.06619361
153	0x3d3dc578	0.0463309
154	0x3c22602e	0.009910626
155	0xbc65c650	-0.014024332
156	0x3d8824e5	0.06647662
157	0xbd8f20d2	-0.06988682
158	0xbd7f7fa1	-0.062377576
159	0x3b873842	0.0041265795
160	0x3dac9664	0.08427122
161	0xbd5a9060	-0.053360343
162	0x3d8eb2aa	0.06967671
163	0xbd2effd9	-0.042724464
164	0xbd943c8b	-0.0723811
165	0xbd1215c1	-0.035665277
166	0xbd7c2802	-0.061561592
167	0x3d910294	0.0708057
168	0xbd7d41d8	-0.06183037
169	0xbda86ee5	-0.082242765
170	0xbdaf94c5	-0.085732974
171	0x3ab1f280	0.0013576299
172	0x3d0485d9	0.03235421
173	0x3bed7e90	0.0072477534
174	0xbce45555	-0.02787272
175	0x3d29d049	0.0414584
176	0xbcaae84e	-0.020862725
177	0xbd35b850	-0.044365227
178	0x3dbc2783	0.09187224
179	0x3d5f97c9	0.054588113
180	0x3b4d9b71	0.0031373168
181	0xbd5d0ff9	-0.05397031
182	0x3acda4a8	0.001568933
183	0x3d071c48	0.032985955
184	0xbdbedb76	-0.093192026
185	0x3d70852d	0.058720756
186	0xbcb39cc1	-0.021925332
187	0xbd514fbb	-0.051101428
188	0x3bb3f340	0.005491644
189	0x3cd453c4	0.025918849
190	0xbd7e840f	-0.06213766
191	0xbddaacd3	-0.10677495
192	0xbccd8f65	-0.02509279
193	0xbd8b6f86	-0.06808381
194	0xbd8b5c13	-0.06804671
195	0xbcedf6a9	-0.02904828
196	0xbcf6ecef	-0.030142276
197	0xbdc44497	-0.09583395
198	0x3d44a91a	0.04801283
199	0xbd305dac	-0.043058082
200	0x3dd1bf63	0.10241582
201	0x3d67cd7d	0.056592453
202	0x3c4efa12	0.012632864
203	0xb7f10fa0	-2.8736715e-05
204	0x3d955099	0.072907634
205	0xbd3b85dc	-0.045781955
206	0xbc6d3593	-0.014478105
207	0x3d3ce928	0.046120793
208	0x3d7144b2	0.058903404
209	0xbd5a3e8d	-0.05328231
210	0x3c5a02d4	0.013306338
211	0x3cc7f007	0.024406446
212	0x3da6d2a1	0.08145643
213	0xbd70fd5e	-0.05883538
214	0x3b28bd01	0.002574742
215	0xbd9c24b1	-0.07624186
216	0xbcfa910d	-0.030586744
217	0x399ec79a	0.00030284823
218	0xbc24bbc3	-0.0100545315
219	0x3d23e2fb	0.040011387
220	0x3cb26cc6	0.021780383
221	0xbdf59f65	-0.11993293
222	0x3cbe4223	0.023224896
223	0xbcdb0a6f	-0.026738374
224	0xbd26c017	-0.040710535
225	0x3da52d35	0.08065263
226	0x3d914251	0.07092727
227	0x3db167ea	0.08662398
228	0x3d6ac3d5	0.057315666
229	0x3d57e6aa	0.052710213
230	0x3d095432	0.03352756
231	0xbd8ac5ff	-0.06776046
232	0xbdb88ba9	-0.09011013
233	0xbcef8519	-0.02923827
234	0xbdd8d06c	-0.10586628
235	0x3ca54700	0.020175457
236	0xbd5e9826	-0.05434432
237	0x3de3f793	0.111312054
238	0x3d3e2cd9	0.04642949
239	0x3d9cb676	0.07651989
240	0xbc9540e2	-0.018219415
241	0x3c5f0eab	0.013614337
242	0x3da377a5	0.07981805
243	0x3d986cf1	0.07442654
244	0xbd7f9f15	-0.06240757
245	0x3d55f160	0.052232146
246	0xbdc0fea6	-0.0942357
247	0xba09f4d0	-0.0005262615
248	0x3d88cbe8	0.06679517
249	0x3c99d2f3	0.018777346
250	0x3dcc2f83	0.0997
251	0x3cbfd550	0.023417145
252	0x3c991184	0.01868511
253	0xbd953f69	-0.07287485
254	0x3d8c5a6f	0.06853186
255	0x3d818108	0.06323439

lstm.weight_ih_l1 f4 [512, 128]
0	0x3c22817a	0.009918565
1	0xbc6076ab	-0.013700168
2	0x3d8da860	0.069168806
3	0x3d00e9ba	0.0314729
4	0xbd38177c	-0.04494427
5	0x3dcc63a7	0.09979945
6	0x3c443fbe	0.011978088
7	0x3ccf5d55	0.025313059
8	0x3d96ec34	0.07369271
9	0x39459c24	0.00018845551
10	0xbcba4e92	-0.022742543
11	0xbcbb82c8	-0.02288951
12	0xbc472062	-0.012153717
13	0x3ddec5c5	0.10877565
14	0xbb234a80	-0.0024916232
15	0xbdbdd4d7	-0.092691116
16	0x3cdaf208	0.026726738
17	0xbd7070df	-0.058701392
18	0x3d4a646c	0.049412176
19	0xbd22443f	-0.039615866
20	0xbc64e9a8	-0.013971724
21	0x3d218d9c	0.03944169
22	0x3cc10108	0.023560062
23	0xbdb181fb	-0.0866737
24	0x3d7f92e7	0.062395956
25	0xbd999eb5	-0.07500974
26	0x3d3d7f6e	0.046264105
27	0xbd71f621	-0.059072617
28	0x3d9981c9	0.07495458
29	0xbbf26f5a	-0.007398528
30	0x3de9d520	0.114176035
31	0x3df12c3e	0.11776017
32	0xbe229108	-0.15875638
33	0x3e1b3ccf	0.15159915
34	0x3d946795	0.07246319
35	0xbdf3bc52	-0.119011536
36	0xbbfd367c	-0.0077274423
37	0x3da88209	0.08227927
38	0xbd6c02ea	-0.057619967
39	0xbd5fdd44	-0.054654375
40	0x3d272453	0.040806126
41	0x3b732bf4	0.0037105056
42	0x3d07c65c	0.033148155
43	0x3dc91fad	0.09820495
44	0x3c7b44bf	0.015336215
45	0xbd6f358a	-0.05840067
46	0xbd5ddc21	-0.05416501
47	0xbdec3aa9	-0.11534626
48	0xbe027595	-0.12740166
49	0xbce904f9	-0.028444754
50	0xbd0c6a00	-0.034280777
51	0xbd751085	-0.059830207
52	0x3d0c0da7	0.034192707
53	0x3d629b54	0.055323914
54	0x3d0b5e66	0.034025572
55	0xbdaddb34	-0.08489075
56	0x3dacbd1e	0.08434509
57	0xbd46909d	-0.048477758
58	0xbddc65db	-0.10761615
59	0x3d5b3f0e	0.05352693
60	0xbd6ceaa2	-0.05784095
61	0x3d0a3242	0.033739336
62	0xbdd9c5d4	-0.10633436
63	0x3dcf27f9	0.10115046
64	0x3dc3a068	0.095520794
65	0xbd757143	-0.059922468
66	0x3db0c1cf	0.08630716
67	0x3d6f58e4	0.058434382
68	0xbd78ceea	-0.060744204
69	0xbc7190d2	-0.0147440005
70	0x3d0c34c5	0.034230012
71	0x3d05f0f9	0.032700513
72	0x3dac616c	0.08417019
73	0x3d174370	0.036929548
74	0x3d9edca1	0.077569254
75	0x3b3158d1	0.0027060995
76	0xbd5934d4	-0.053028896
77	0x3cd2a965	0.02571554
78	0xbd6b1aaf	-0.057398494
79	0xbc3fb61c	-0.011701133
80	0x3de65a19	0.112476535
81	0xbd9312e6	-0.07181339
82	0xbdc2e41c	-0.09516165
83	0xbc8b9ecd	-0.017043496
84	0xbe1e845c	-0.15480179
85	0x3e051af0	0.12998557
86	0x3e08bd78	0.13353527
87	0x3c7b194a	0.015325854
88	0x3d91d448	0.071205676
89	0x3d36eedf	0.0446614
90	0xbb57fdf7	-0.0032957771
91	0x3cd5e2d7	0.026109142
92	0xbb4bdbc9	-0.0031106344
93	0x3d0a1d6e	0.033719473
94	0x3d612dc8	0.0549753
95	0xbb3787e4	-0.002800458
96	0x3e03c125	0.12866648
97	0x3e02d214	0.12775451
98	0x3d3814d1	0.044941727
99	0x3b87905b	0.0041370816
100	0xbd35498d	-0.044259597
101	0x3c0caf15	0.008586665
102	0xbdebf5b2	-0.11521472
103	0xbcaad1bc	-0.020851962
104	0x39555ebc	0.00020348554
105	0xbcc3807a	-0.023864973
106	0xbdbeb4dc	-0.0931184
107	0x3d6806e4	0.056647196
108	0xbc229a26	-0.009924447
109	0xbddeda9c	-0.1088154
110	0xbc9f6715	-0.019458333
111	0x3dd9005b	0.10595771
112	0xbd6d7990	-0.05797726
113	0xbdf86841	-0.1212926
114	0x3dc2318b	0.09482106
115	0xbc9ecd2d	-0.019384945
116	0x3cb48d92	0.022040162
117	0xbe2c6dfa	-0.16838828
118	0x3d44921e	0.04799091
119	0x3d8acdcf	0.06777536
120	0xbe3bb1b0	-0.18329501
121	0xbc818ad4	-0.015813269
122	0xbda611c9	-0.08108861
123	0x3c8c0e79	0.017096745
124	0x3d491da7	0.049100544
125	0x3d61621f	0.055025216
126	0xbc07350c	-0.008252393
127	0x3dce02fb	0.10059162
128	0xbccde89b	-0.025135329
129	0x3d8a0c1a	0.067405894
130	0x3e0c7fc4	0.13720614
131	0x3b53aab2	0.0032297787
132	0x3d7adad6	0.061243854
133	0x3e0ba655	0.1363767
134	0x3c63d655	0.013906081
135	0xbcd51b52	-0.026014004
136	0x3d22c10f	0.039734896
137	0xbcf8c190	-0.030365735
138	0x3d9080ba	0.07055803
139	0x3deb5b43	0.11492016
140	0xbe567221	-0.20941974
141	0x3c7de92c	0.015497487
142	0x3d96c489	0.07361705
143	0xbc6191c4	-0.013767663
144	0xbd89b6e3	-0.06724336
145	0x3cc31ba0	0.023816884
146	0xbe035eee	-0.12829182
147	0x3d9f89b1	0.077899344
148	0xbce84d87	-0.02835728
149	0x3c00b327	0.007855213
150	0x3df57b3d	0.119863965
151	0x3af06756	0.0018341343
152	0xbdc80e7a	-0.09768386
153	0xbde8f99c	-0.11375734
154	0xbdcd7270	-0.10031593
155	0x3cc1bdee	0.023650136
156	0x3df7c75f	0.12098574
157	0xbdf0a7d3	-0.1175076
158	0x3b9f773e	0.0048665097
159	0x3d2b89b8	0.041879386
160	0x3d8c5f9d	0.06854174
161	0x3ca87463	0.02056331
162	0x3de86800	0.113479614
163	0x3e1aa12b	0.15100543
164	0xbdaf133d	-0.08548591
165	0xbcec793e	-0.028866407
166	0x3de440c1	0.11145163
167	0x3d5920a5	0.053009648
168	0x3d8232e6	0.06357364
169	0x3d3ef9ad	0.046624828
170	0xbdd243c8	-0.102668345
171	0x3d4d1c9f	0.050076123
172	0x3b6efb6a	0.0036465772
173	0x3d1af7f9	0.03783414
174	0x3c5b864a	0.013398716
175	0x3d07109b	0.03297482
176	0x3b806d06	0.0039192466
177	0xbd93f498	-0.07224387
178	0x3d32517e	0.04353475
179	0xbd127569	-0.035756502
180	0xbb42ef03	-0.0029744513
181	0x3bda7059	0.006666225
182	0xbd935c14	-0.07195297
183	0xbe44fbb5	-0.19236644
184	0x3c8c41c3	0.017121201
185	0x3d74356c	0.05962126
186	0xbda454fb	-0.08024021
187	0x3dd75342	0.10513927
188	0xbd9d0e36	-0.07668726
189	0xbc953363	-0.01821298
190	0x3d95e689	0.07319362
191	0xbd4ab012	-0.04948432
192	0x3c9c3091	0.019066127
193	0xbc95b8ab	-0.018276533
194	0x3a939ae0	0.0011261366
195	0x3d133d8f	0.03594738
196	0x3d11786f	0.035515245
197	0x3d7a73c7	0.06114557
198	0x3d8061b5	0.06268636
199	0xbe0ffdd5	-0.14061673
200	0x3d0d2621	0.03446019
201	0x3d2e752a	0.042592205
202	0x3d866097	0.06561392
203	0x3dc0aed2	0.09408344
204	0x3dccbec8	0.09997326
205	0x3d0612c9	0.03273276
206	0x3d8535d5	0.06504408
207	0xbd8f1525	-0.06986455
208	0xbe68c2b0	-0.22730517
209	0xbc9fbc3a	-0.019498933
210	0x3d04116d	0.03224318
211	0xbd5566e6	-0.052100085
212	0xbcd7331f	-0.026269494
213	0x3c10aa4d	0.008829665
214	0x3cbb76ef	0.02288386
215	0xbd04e95a	-0.032449104
216	0xbd7c3b68	-0.06158009
217	0xbe2d4cc1	-0.1692381
218	0xbbc31b73	-0.0059542
219	0x3c961e8c	0.018325113
220	0xba8608d8	-0.0010226024
221	0x3cb60f5e	0.022224125
222	0x3cbc7d75	0.023009041
223	0xbdbe2eb7	-0.09286254
224	0x3c1ad5ca	0.009450385
225	0x3e535c62	0.2064071
226	0xbd827635	-0.063702025
227	0xbdc1aa1f	-0.09456276
228	0xbd5df3a6	-0.05418744
229	0x3de7e34d	0.11322651
230	0xbd5fcdfa	-0.054639794
231	0x3cd853d4	0.02640716
232	0xbdbe9da5	-0.09307412
233	0xbd788355	-0.060672123
234	0x3d587535	0.052846152
235	0xbdadb07f	-0.084809296
236	0x3d9ef96d	0.07762418
237	0x3a55205a	0.0008130126
238	0xbd073556	-0.03300985
239	0x3db4c2a8	0.0882619
240	0x3c01b0b4	0.007915664
241	0xbc4af486	-0.0123874005
242	0x3d61a255	0.055086453
243	0xbcfa3488	-0.030542627
244	0x3df306d3	0.11866536
245	0x3bf32a3b	0.0074208057
246	0x3cecb4d8	0.028894827
247	0x3d9e7f61	0.07739139
248	0xbe2e0098	-0.16992414
249	0xbd565d81	-0.052335266
250	0xbdd25bec	-0.10271439
251	0xbe0bf22c	-0.136666
252	0x3d26cb94	0.04072149
253	0x3cbe7581	0.02324939
254	0xbd817af5	-0.0632228
255	0xbd6ef13a	-0.05833552

lstm.weight_hh_l1 f4 [512, 128]
0	0x3d2c16bd	0.042013872
1	0x3bcd80e5	0.006271469
2	0x3daf40fd	0.085573174
3	0x3d601a3b	0.054712515
4	0xbdb72940	-0.08943415
5	0xbdaa5286	-0.08316521
6	0x3dd5ed86	0.104456946
7	0x3d08f30d	0.033434916
8	0xbc1ddb62	-0.0096348245
9	0x3d895a5b	0.06706687
10	0x3c9a3ad4	0.01882688
11	0xbc93ebfc	-0.018056862
12	0xbde0a25a	-0.10968466
13	0xbdcfb017	-0.10141008
14	0xbd55dc2c	-0.052211925
15	0x3cc35a28	0.0238467
16	0x3d334cf3	0.043774556
17	0x3d71e913	0.059060168
18	0xbd801828	-0.062546074
19	0xbd695e83	-0.0569749
20	0xbdefdb8f	-0.11711799
21	0xbd961426	-0.07328062
22	0xbc43aad5	-0.011942585
23	0xbdf84607	-0.12122732
24	0xbbcb7b02	-0.006209732
25	0xbde7e887	-0.11323648
26	0xbc612e50	-0.013743952
27	0x3ca85de2	0.02055258
28	0xbd7a5de3	-0.061124694
29	0x3c6951c3	0.014240685
30	0x3d84a750	0.06477225
31	0x3e0d98d6	0.13827834
32	0x3cad332f	0.02114257
33	0xbd0b9fc9	-0.03408793
34	0x3da40c71	0.080101855
35	0x3c30118e	0.010746373
36	0xbdfe9340	-0.124304295
37	0xbd88d6aa	-0.06681569
38	0xbd31b1ad	-0.043382335
39	0x3d48eae2	0.049052127
40	0x3d07a5b6	0.03311702
41	0x3c9dbadb	0.019254139
42	0xbd9a7d64	-0.075434476
43	0xbda36baa	-0.0797952
44	0xbd5484c0	-0.051884413
45	0x3cab4a20	0.020909369
46	0xbc947df0	-0.018126458
47	0x3d38cac5	0.04511525
48	0x3d993f64	0.07482794
49	0xbdf117f5	-0.117721476
50	0xbd6eee39	-0.058332656
51	0xbc6d07e4	-0.014467213
52	0x3cf3f5d6	0.02978031
53	0xbc9e04c6	-0.019289386
54	0x3d309a9b	0.043116193
55	0x3d037868	0.03209725
56	0x3d31ef61	0.04344118
57	0xbd0b7817	-0.034050073
58	0x39d7026e	0.00041009806
59	0xbd3eed02	-0.046612747
60	0x3d2c344b	0.042042058
61	0x3d2bb2cd	0.041918565
62	0x3da9b818	0.08287066
63	0xbdc72d72	-0.09725465
64	0xbcc133ac	-0.02358421
65	0xbcd0a17e	-0.02546763
66	0x396b7c24	0.00022457592
67	0x3d3078d3	0.043083977
68	0xbe3454c9	-0.17610468
69	0xbcf24e91	-0.029578479
70	0x3d54d652	0.051962204
71	0x3da147f0	0.07875049
72	0x3ccbb51c	0.024866633
73	0x3cdb39d7	0.026760979
74	0xbd221bd7	-0.03957733
75	0x3cd54885	0.026035557
76	0xbd801c1c	-0.062553614
77	0x3dc90e90	0.09817231
78	0xbda948b3	-0.082658194
79	0x3cb821d4	0.022477068
80	0xbce5adc1	-0.028036954
81	0xbdb98b71	-0.090597995
82	0xbd507c85	-0.0509
83	0xbd8614f9	-0.06546969
84	0x3db11022	0.08645655
85	0x3d16f0ee	0.036850862
86	0xbce8c506	-0.02841426
87	0x3d868f48	0.065702975
88	0x3cb75ba8	0.022382572
89	0xbdf14d87	-0.11782365
90	0xbdb75429	-0.08951599
91	0xbcd945fc	-0.026522629
92	0x3d015a78	0.03158042
93	0xba880de8	-0.0010380121
94	0xbda357cf	-0.079757325
95	0x3cf0242f	0.029314129
96	0x3cd541f5	0.026032427
97	0xbc6f322a	-0.014599362
98	0x3d6afe88	0.057371646
99	0xbdeda83c	-0.11604354
100	0x3ccc41ee	0.024933781
101	0xbd1cfdaa	-0.03832785
102	0xbc46925f	-0.0121198585
103	0x3dd14426	0.102180764
104	0xbd840336	-0.06445925
105	0xbbbdccbd	-0.005792229
106	0x3d952698	0.07282752
107	0xbdd7ba5c	-0.10533592
108	0x3d05f85e	0.032707565
109	0x3cdba23b	0.026810756
110	0x3dc9a647	0.09846168
111	0xbc7a8cd4	-0.015292365
112	0x398d222e	0.00026919082
113	0x3d3eccb8	0.046581954
114	0x3cb59d9d	0.022169882
115	0xbd8590d8	-0.065217674
116	0x3d138a50	0.036020577
117	0xbdc89db8	-0.097957075
118	0x3d5b3bb2	0.053523727
119	0xba21b2b6	-0.00061682926
120	0x3de2ef8b	0.110808454
121	0x3c44bc3d	0.01200777
122	0xbc7f5400	-0.015583992
123	0xbe2e76da	-0.17037526
124	0xbdfe142b	-0.124061905
125	0x3d5add8a	0.053433932
126	0xbcafacc8	-0.021444693
127	0x3d2aa6b0	0.04166287
128	0x3d160be4	0.036632434
129	0x3d3534a4	0.044239655
130	0x3d6a2d77	0.057172265
131	0xbd00993c	-0.031396136
132	0x3cb6a7ec	0.022296868
133	0xbde58ab9	-0.112081
134	0x3cf5f8fc	0.030025952
135	0x3d82c12c	0.06384501
136	0x3c9821de	0.018570837
137	0x3d91a6fe	0.07111929
138	0x3df210af	0.118195884
139	0xba2fdb8c	-0.0006708435
140	0xbdaa1a0e	-0.08305751
141	0xbcb05929	-0.02152689
142	0xbc1473ae	-0.009060783
143	0x3d9c9d23	0.07647159
144	0xbdd852ed	-0.10562692
145	0x3d667ff1	0.05627436
146	0xbdd44786	-0.103652045
147	0xbd4f78b5	-0.050652225
148	0x3dd90169	0.10595972
149	0xbd2840f0	-0.041077554
150	0x3d3fa318	0.046786398
151	0xbd995789	-0.07487399
152	0xbdf81dbe	-0.12115048
153	0x3cde1075	0.027107457
154	0xbbd5247c	-0.0065045934
155	0xbc84d8b5	-0.016216615
156	0xbdbbe8db	-0.09175273
157	0xbe2cf80b	-0.16891496
158	0x3c783815	0.01515009
159	0x3c6d759e	0.014493374
160	0x3d9a54c2	0.075356975
161	0xbd94b2d2	-0.0726067
162	0xbd4e283e	-0.050331347
163	0x3d01809e	0.0316168
164	0x3ddaab1a	0.10677166
165	0xbb49efa6	-0.0030813008
166	0x3d00bac7	0.031428125
167	0x3d007091	0.03135735
168	0xbe014a36	-0.12625965
169	0x3d0ed2c0	0.034868956
170	0xbdf609c9	-0.12013585
171	0x3c9991c8	0.018746272
172	0xbcfb68cc	-0.03068962
173	0x3ddc64d4	0.10761419
174	0xbd9749f7	-0.073871545
175	0x3c5bced6	0.013416013
176	0xbd5aed73	-0.053449105
177	0xbdb6578a	-0.089034155
178	0xbd0f6852	-0.035011597
179	0x3dc41a51	0.09575332
180	0x3d858db1	0.06521166
181	0x3e103cf3	0.1408575
182	0x3d541029	0.051773224
183	0x3dbc1fa3	0.09185722
184	0xbdcf2bc0	-0.101157665
185	0x3c4d9742	0.01254827
186	0x3de7d449	0.11319787
187	0xbd530f20	-0.051528096
188	0x3ca144ad	0.019686067
189	0x3cda6913	0.026661431
190	0x3e0d7a70	0.13816237
191	0xbd41ecc8	-0.047344953
192	0xbbce4115	-0.0062943795
193	0x3cbc98e1	0.023022117
194	0x3d088be5	0.03333654
195	0xbcecee75	-0.028922299
196	0x3d9e8262	0.07739712
197	0xbd8ac672	-0.06776132
198	0x3ced6512	0.028978858
199	0x3d596598	0.053075403
200	0xbde98f0e	-0.11404239
201	0x3d64ff7f	0.055907723
202	0x3dbd5750	0.09245169
203	0xbd6e0668	-0.05811158
204	0xbe08a847	-0.13345443
205	0x3d53990a	0.05165962
206	0xbc7a1795	-0.015264411
207	0xbc3f37b1	-0.011670993
208	0xbdf8eb9d	-0.12154315
209	0x3d385617	0.045003977
210	0x3d9611d7	0.073276214
211	0x3db186f0	0.086683154
212	0x3dc86ce7	0.097863965
213	0x3c96a384	0.018388517
214	0xbcb70d5e	-0.022345241
215	0xbdbf2fe3	-0.093353055
216	0x3ca950cd	0.020668412
217	0x3ce74c20	0.028234541
218	0x3d905992	0.07048334
219	0x3dac3894	0.08409229
220	0x3d494f8e	0.049148135
221	0x3dc62f88	0.096770346
222	0xbe2086bb	-0.15676396
223	0xbdde90cc	-0.108674616
224	0xbd68613e	-0.056733362
225	0xbcea10cb	-0.02857246
226	0x3d30c435	0.043155868
227	0xbdb58812	-0.08863844
228	0xbd5a3114	-0.05326946
229	0xbbcbb87c	-0.0062170606
230	0xbe0b644b	-0.13612477
231	0xbc7b3984	-0.015333537
232	0xbc2849e0	-0.010271519
233	0xbd9930a3	-0.0747998
234	0x3d6124c3	0.0549667
235	0x3d686291	0.056734625
236	0xbcf8a5d4	-0.03035251
237	0x3db05253	0.08609452
238	0xbd649f1a	-0.055815794
239	0xba3d00ae	-0.0007209879
240	0xbbc70c02	-0.0060744295
241	0xbc9bc065	-0.01901264
242	0x3d7310aa	0.059342064
243	0xbdfe0bf8	-0.124046266
244	0x3d9356ca	0.07194288
245	0xbcbfa259	-0.023392843
246	0x39bc3432	0.00035897043
247	0x3d730d4b	0.05933885
248	0xbd0e45bc	-0.034734473
249	0x3c4a9080	0.012363553
250	0x3d13a0c5	0.036041994
251	0xbdbf7a5a	-0.093495086
252	0xbd1792b3	-0.037005138
253	0x3de01ed6	0.109433815
254	0xbd2165d0	-0.039403737
255	0x3c4c4cc7	0.012469477

lstm.bias_ih_l1 f4 [512]
0	0xbd8daa3c	-0.06917235
1	0xbdafa315	-0.08576027
2	0xbc063109	-0.008190402
3	0xbd443f7d	-0.04791211
4	0x3d4bbb73	0.049739312
5	0xbda895a9	-0.082316704
6	0x3c602984	0.013681773
7	0x3c8d6a20	0.017262518
8	0x3d96e8a2	0.0736859
9	0xbb70ed6a	-0.0036762604
10	0x3c4ae3a0	0.012383372
11	0xbc9306d2	-0.017947588
12	0x3c3911d1	0.011295752
13	0xbbf6a163	-0.007526563
14	0xbd8188f7	-0.06324952
15	0x3c97f364	0.018548675
16	0x3c8f012b	0.017456612
17	0xbd6a49b5	-0.0571992
18	0x3da9954f	0.082804315
19	0x3dcdb667	0.10044556
20	0x3d2e01ff	0.042482372
21	0xbd14f172	-0.036363073
22	0xbd029733	-0.031882476
23	0xbd91400f	-0.07092296
24	0x3c831d68	0.016005233
25	0x3c8132d5	0.015771309
26	0xbc9f6e89	-0.019461887
27	0x3cdca009	0.02693178
28	0x3db1008f	0.08642685
29	0xbd71e90d	-0.059060145
30	0xbdcb3d44	-0.09923795
31	0x3d83bf98	0.06433028
32	0xbd4eec03	-0.050518047
33	0x3d9d51d7	0.07681625
34	0xbc958a11	-0.018254312
35	0x3da52234	0.08063164
36	0x3ddb185e	0.10698007
37	0x3d75996a	0.05996076
38	0xbd1f3bf5	-0.03887554
39	0xbce2666e	-0.027636733
40	0x3d4f0223	0.050539147
41	0xbce3faf4	-0.027829625
42	0x3cb70095	0.022339145
43	0xbcec6b7b	-0.028859844
44	0xbd6ce301	-0.057833675
45	0xbd7409e2	-0.059579737
46	0x3d833d3b	0.06408163
47	0x3dd4f439	0.10398144
48	0x3d12636f	0.03573936
49	0x3b831052	0.0039997483
50	0x3d290a92	0.041269846
51	0xbd1cd12f	-0.03828543
52	0xbc9c03fb	-0.019044867
53	0xbd807570	-0.062723994
54	0xbd3dee97	-0.046370115
55	0xbd47797b	-0.048699837
56	0x3d1f03c3	0.038821947
57	0x3d76b037	0.060226645
58	0x3c5cd799	0.013479137
59	0xbbf35b2a	-0.007426639
60	0xbd4880e0	-0.04895103
61	0x3d714a24	0.058908597
62	0xbd42ee51	-0.047590557
63	0x3da9fa06	0.08299641
64	0x3d573d9c	0.05254899
65	0xbd5da13a	-0.054108836
66	0x3d4eb1c5	0.050462503
67	0xb7c85d48	-2.3885295e-05
68	0xbbb7f052	-0.005613365
69	0x3c052584	0.00812662
70	0x3d12ff88	0.035888225
71	0xbc5513ed	-0.013005239
72	0x3d902bde	0.07039617
73	0xbc0cb70b	-0.008588563
74	0x3d4ab3f6	0.04948803
75	0xbda3f338	-0.08005375
76	0x3d8fbeab	0.07018789
77	0xb825c711	-3.952446e-05
78	0x3d1fe394	0.039035395
79	0x3c8312c9	0.016000168
80	0x3c20aa06	0.009806162
81	0xbd2125b2	-0.03934259
82	0x3de9b0e4	0.11410692
83	0xbd84c0d6	-0.06482093
84	0x3cd19a73	0.025586342
85	0xbd8c5008	-0.06851202
86	0x3c842c7e	0.016134497
87	0x3d7b823c	0.061403498
88	0x3da02ae6	0.07820682
89	0xbcacd211	-0.021096261
90	0xbd25116e	-0.040299825
91	0xbc2bc071	-0.010482893
92	0x3df617b4	0.1201624
93	0xbd924b47	-0.07143264
94	0x3d04ed79	0.032453034
95	0xbcf47f6a	-0.029845912
96	0x3d78d39b	0.060748678
97	0xbc7c9013	-0.015415209
98	0x3d84f962	0.064928785
99	0xbd232296	-0.039827906
100	0x3d110d7e	0.035413258
101	0xbd751417	-0.059833612
102	0x3db89643	0.09013035
103	0xbd35e013	-0.044403147
104	0x3d0067a2	0.031348832
105	0x3b01f67e	0.0019830759
106	0xbd8f14bd	-0.069863774
107	0x3d7bb225	0.06144919
108	0x3d7e506c	0.062088415
109	0x3db25908	0.087083876
110	0x3c7040cf	0.014663889
111	0x3c81a5d6	0.015826147
112	0x3d86cbcf	0.06581842
113	0x3d4a73d0	0.049426854
114	0xbda23621	-0.079204805
115	0x3b593b7c	0.0033147028
116	0xbc7e86e0	-0.015535086
117	0xbd0719e1	-0.032983664
118	0xbd9402a6	-0.07227068
119	0x3ce8308e	0.028343465
120	0x3b09e459	0.0021040647
121	0x3d84ccaa	0.06484349
122	0xbc91b36d	-0.017785752
123	0x3d25c4e4	0.040470973
124	0xbd8d1adb	-0.06889888
125	0xbd5707f6	-0.052497827
126	0x3d211b7d	0.039332855
127	0x3d62de96	0.055388056
128	0x3d3d9dd5	0.0462931
129	0x3d893038	0.0669865
130	0x3c474c3b	0.012164171
131	0x3e05087f	0.12991522
132	0xbc55ada8	-0.013041891
133	0x3d26258b	0.040563148
134	0xbda1978f	-0.07890236
135	0x3d61e88e	0.055153422
136	0x3d8bccef	0.06826197
137	0x3c067aee	0.00820802
138	0x3da759f0	0.08171451
139	0xbd2e55fb	-0.042562466
140	0x3d926c41	0.07149554
141	0xbca2c4e7	-0.019869281
142	0xbd0ee08b	-0.03488211
143	0x3d3b6275	0.045748193
144	0x3c649be9	0.0139531875
145	0x3d95c748	0.073134005
146	0x3d49613b	0.04916499
147	0x3d96b50e	0.07358752
148	0xbccf3c40	-0.025297284
149	0xbda06167	-0.07831078
150	0x3d5c3f60	0.053771377
151	0xbd79b81e	-0.060966603
152	0xbc8b3b3d	-0.01699602
153	0x3d435031	0.0476839
154	0x3dc9dcdf	0.09856581
155	0x3bab9ff9	0.005237576
156	0x3d1fd5e7	0.039022353
157	0x3e31e42a	0.17372194
158	0x3d3752f5	0.04475685
159	0x3c2cb0dd	0.010540214
160	0x3d45b1ed	0.048265386
161	0xbc07a0d0	-0.008278087
162	0xbcd52338	-0.02601777
163	0x3df17611	0.117900975
164	0x3cb03f60	0.021514595
165	0x3d8644aa	0.065560654
166	0xbcf6db01	-0.030133726
167	0xbced8ea8	-0.028998688
168	0x3d74e733	0.0597908
169	0x3daa1a9e	0.08305858
170	0x3bf84306	0.007576349
171	0xbcd37832	-0.02581415
172	0x3cfa3995	0.030545035
173	0x3d65532d	0.055987526
174	0x3d63494c	0.055489823
175	0x3e3b5f54	0.18298084
176	0x3d917456	0.071022674
177	0x3de70c82	0.112816826
178	0x3dbedb51	0.09319175
179	0x3e01ac09	0.12663282
180	0x3d709caf	0.058743175
181	0x3e18f8c9	0.14938654
182	0x3bf6225e	0.007511421
183	0x3dda305c	0.10653755
184	0xbdc61bd8	-0.096732795
185	0x3d6a0283	0.0571313
186	0xbcaea687	-0.02131964
187	0xbd208029	-0.039184723
188	0x3d3aa61f	0.04556858
189	0x3d80cd1e	0.06289123
190	0x3d972a4c	0.07381114
191	0x3ce4eba4	0.027944393
192	0x3d312cd9	0.04325566
193	0xbd92a714	-0.07160774
194	0x3c77a9ef	0.015116199
195	0x3d4420a3	0.047882687
196	0xbd7a33ad	-0.061084438
197	0x3d7e8018	0.06213388
198	0x3d3c366b	0.045950335
199	0xbd33629d	-0.043795217
200	0x3dd321b1	0.103091605
201	0xbc88acc7	-0.01668395
202	0x3d05c1a2	0.032655366
203	0x3d602804	0.054725662
204	0xbc67a77a	-0.014139051
205	0xbd3b45d0	-0.045720875
206	0x3d12fb23	0.035884034
207	0x3dd1b4e5	0.10239581
208	0x3dd247f5	0.10267631
209	0x3cdaea46	0.026723038
210	0xbc1f747c	-0.009732362
211	0x3d61f786	0.055167697
212	0xbd374dd5	-0.04475196
213	0x3db6b26f	0.08920752
214	0x3d2ab56d	0.041676927
215	0x3d909c84	0.07061103
216	0xbc8befeb	-0.017082175
217	0xbcb19561	-0.021677675
218	0x3d9cb158	0.07651013
219	0x3d9d7340	0.07687998
220	0x3e10ff90	0.1415999
221	0x3d33bb50	0.043879807
222	0x3d078ea2	0.03309501
223	0xbcf15a08	-0.029461876
224	0xbca2b109	-0.019859808
225	0x3db95687	0.09049707
226	0xb98da7ee	-0.00027018733
227	0x3dee6fa0	0.116423845
228	0x3d8b73a9	0.0680917
229	0xbd9982f3	-0.0749568
230	0x3d71b6dd	0.059012283
231	0x3de4d633	0.11173668
232	0x3e29d5e0	0.16585493
233	0x3e35ef67	0.17767106
234	0xbc0ff576	-0.00878655
235	0x3d8cba35	0.06871454
236	0x3e0f9a16	0.14023623
237	0x3cc213ce	0.023691084
238	0x3c8afb22	0.016965453
239	0xbda58015	-0.0808107
240	0xbcea58d0	-0.028606802
241	0xbc841b76	-0.016126376
242	0xbdd35d85	-0.10320572
243	0x3d29855a	0.04138694
244	0xbcf5bc11	-0.029996904
245	0x3d612a7e	0.054972164
246	0xbcab71f4	-0.02092836
247	0xbb1e1eb5	-0.002412719
248	0xbd2604c7	-0.0405319
249	0x3df11b81	0.11772824
250	0x3e3cf765	0.18453749
251	0xbd97f9d5	-0.074206986
252	0xbd8af8e6	-0.06785755
253	0x3d5cab78	0.053874463
254	0x3dcbb9c5	0.09947542
255	0xbc853d64	-0.016264625
